data.pth (torch, 5546 bytes, 6 tensors)

l1.weight f4 [8, 54]
00000000: de24 05be 3a82 cebe beae ad3d 7578 3b3f
00000010: 1f17 cc3e 26b4 923e f033 a13e 5455 773e
00000020: 0bb5 913e cc39 00bf bcff dc3e 1654 b33d
00000030: bf6e 003f 0424 c03e e4b4 df3e af6a 0f3e
00000040: 5952 ad3d e0ea c3bd d5b2 e33e f090 00bf
00000050: 6fd1 2c3f 5de9 29be 5107 2a3f 2268 0e3f
00000060: 44aa a43e cdcc 323e 3d02 613e 3f7a 803e
00000070: 63a6 903e 54ba aa3e 4925 b23e da43 a5be
00000080: 9982 93be 3c76 46be 4e69 de3e 080a 8a3d
00000090: def9 f4bd b300 fa3e e676 dc3e 2b14 203e
000000a0: 61a3 883e 0b63 77be 53f1 7c3e 5f63 6f3e
000000b0: 1a24 51be 684f ae3e 8557 1abe 29fc 0fbf
000000c0: 15e2 38be ad44 a03d 5d01 8f3e 9061 aa3e
000000d0: ee49 8b3e 1588 3bbc 3c73 813e 713b 08bd
000000e0: 6298 913c 5e80 b6be 5278 25be 7cb8 b9bd
000000f0: a0a9 c2be 3c8b 65be 8f37 aa3e 72f6 3c3f
00000100: 1999 a7be 5d43 7c3e 6ed8 133f 4e1c 88be
00000110: 157a 323d 7197 b13e e804 cabd 058c 3fbe
00000120: 2f99 abbe 354e 323f 58d6 19bf b9fb c03e
00000130: 6ed0 19bf 8c44 15bf af45 f4be 447c 763d
00000140: 331e d3bd 005b b6bb ece5 f1bc e7b6 65be
00000150: b894 813e 9be7 ddbe 7d54 b6be 310e 073f
00000160: 0027 8cbe 6474 6d3e e50b eabd d0e3 373f
00000170: f0e7 cdbc b731 183e fc1c b43e 1651 bb3e
00000180: 0ab9 d13e 9e14 4d3e cff5 09be 7a62 05be
00000190: af9b e1bd 31ec 413f 34b5 dd3e 7cd5 2cbe
000001a0: 2573 5cbe 647c 7fbd 599f 1a3e 3836 833e
000001b0: 2b14 f03e f443 a8bc 335d b13e 8a41 663f
000001c0: 6a2d 2fbe 8454 873e 53d0 83be 12a6 cd3e
000001d0: 3054 a4bd c935 adbe 27ce 193f 8e9d 93bd
000001e0: 315d 85be e783 1fbe c75f 0fbe 6dfe ba3d
000001f0: cc8b a43e a320 d2bd dced a4be 47f3 bcbe
00000200: c8aa f4be 5ef4 b13e 323b e6be c640 e9be
00000210: cf8d 693d 76ef 5e3e 91ce f73e f3d9 a53e
00000220: 8208 533e 7078 11bd e04e 1abc 932f 22be
00000230: d2d4 11bd 41c9 01be b3b3 2a3f 472a 113f
00000240: 1a00 a7bd 1abe 5ebe ee68 e73e 019c 4b3d
00000250: 207f 81bd 70ba 39be 1515 58bc 7fd8 813d
00000260: 21d1 1ebe 69df ec3e 7f70 28be 0dc3 5a3f
00000270: eabb be3e 86d2 753e 8528 45bd e740 e83e
00000280: 96a1 f23d e2cd e1bc c96b 143e 0247 3c3f
00000290: 27fd 4c3e b68c 0dbf 4c6c b93e 2ce2 a8be
000002a0: 8047 ed3e e180 b73e 0452 0abe 1723 07bf
000002b0: 4063 113f a5e3 803d 5dcc bb3d f554 f23e
000002c0: fcfb 0b3f a97d 983c 56e5 84be 0736 243f
000002d0: 319c fc3e 8683 0dbf d6fb 1e3f 1f60 e4bd
000002e0: 9517 323f 1fb5 3d3f 5a14 c03e 660b 8dbe
000002f0: 8f2e e83e 43d4 a43d 5cde 4dbd aebb 0d3f
00000300: e060 353e 8f4c 6f3f a492 423f 1f1d c4be
00000310: cbff 183f 0938 7abe bc1a 773f 3e0a 113e
00000320: 8c20 80bb e628 833c 7130 9d3d 2b83 f7be
00000330: 78ca 06bd 10ee c03c 1bed 503f f4ee 95be
00000340: e433 753f 474c 12be 7e3e 3b3a 09ec 6e3e
00000350: 0a32 e53e 605c a8bd f973 b13c b51f e23e
00000360: 4b19 803e 39e4 dbbd 0041 ab3e 4855 e13d
00000370: 6d1f cfbd b33e 07be d5b8 1bbe bbaa ba3e
00000380: d934 52bd 52d9 91be 62a4 1d3f f748 8ebd
00000390: 4326 9d3d 0f29 1dbe 713f 47bd a84f ffbd
000003a0: 2fc9 3fbe 2521 e9bc 19de 06be d7c5 91be
000003b0: b205 91be 985f 8dbe 101c 91be 5ef2 90be
000003c0: d021 44bd a0fa 48be 60e3 ad3e 4734 873e
000003d0: 7efb 893e 6542 08be b370 b5bc 32b1 84bd
000003e0: eb22 b1bc b6e4 cebd 606c 473f 0089 00be
000003f0: e716 fcbd bafb 0ebd 3842 46be 0cb3 a63c
-0.13002345 -0.4033373 0.08480595 0.7323068 0.3986139 0.28653067 0.31484938 0.24153644
0.28458437 -0.5008819 0.4316386 0.087562725 0.50168985 0.37527478 0.43692696 0.1400554
0.08462972 -0.09566283 0.44472376 -0.5022116 0.6750707 -0.16592927 0.66417414 0.55627644
0.32161152 0.17460938 0.2197351 0.25093266 0.28251943 0.33345282 0.3479407 -0.3227833
-0.28810576 -0.1938104 0.43439716 0.067401946 -0.11961721 0.48828658 0.43059462 0.15632693
0.26687148 -0.24158876 0.24701433 0.23377751 -0.20423928 0.34044957 -0.15072449 -0.5624414
-0.18054993 0.07825599 0.27930728 0.3327756 0.2720484 -0.011446019 0.2528323 -0.033259813
0.017772857 -0.3564481 -0.1615918 -0.09068391 -0.3802004 -0.22416395 0.33245513 0.73813546
-0.32733992 0.24635072 0.5775212 -0.26584095 0.043573458 0.34685853 -0.09864217 -0.18705757
-0.33515307 0.69650584 -0.6009269 0.3769205 -0.60083663 -0.5830772 -0.47709414 0.060177103
-0.103084944 -0.0055650473 -0.02952858 -0.22433053 0.25308776 -0.43340763 -0.35611334 0.5275603
-0.27373505 0.23188931 -0.1142805 0.7183199 -0.02513501 0.14862715 0.35178363 0.365853
0.40961486 0.20027396 -0.13472675 -0.13025847 -0.110160224 0.75751024 0.4330231 -0.16878313
-0.21528299 -0.062374488 0.15099849 0.25627303 0.46890387 -0.020540215 0.34641418 0.89943755
-0.17107168 0.26431668 -0.25744876 0.40165764 -0.0802387 -0.33830097 0.6008019 -0.072077855
-0.26047662 -0.1557766 -0.1400138 0.09130559 0.32137907 -0.10260131 -0.32212722 -0.36904356
-0.47786546 0.3475675 -0.44967037 -0.4555723 0.057020005 0.21771035 0.48399785 0.32392845
0.20608714 -0.03551525 -0.009418219 -0.1583846 -0.035603352 -0.12674429 0.6668045 0.56705135
-0.08154316 -0.21752205 0.45197242 0.049709324 -0.06323075 -0.18137527 -0.01318862 0.063401215
-0.15509464 0.46264198 -0.16449164 0.85453874 0.37252742 0.2400609 -0.048134346 0.45362017
0.11847226 -0.027563993 0.14494242 0.7354585 0.20018445 -0.5529283 0.36215436 -0.32985055
0.46343613 0.35840514 -0.13507849 -0.5278792 0.5679207 0.0629342 0.091698386 0.47330442
0.5468137 0.018614607 -0.2595622 0.6414494 0.49337915 -0.55278814 0.6210302 -0.11151146
0.69567233 0.74104494 0.37515527 -0.2754776 0.4534802 0.08048298 -0.050260887 0.553645
0.17712736 0.93476194 0.76005006 -0.38303468 0.5976531 -0.24435438 0.9652517 0.14164063
-0.00391013 0.016010713 0.07675255 -0.4834226 -0.032907933 0.023551017 0.81611794 -0.2928387
0.95782304 -0.1428691 0.0007142796 0.23332228 0.4476474 -0.08220744 0.021661745 0.44164816
0.25019297 -0.107368894 0.3344803 0.11002594 -0.10113416 -0.13207512 -0.15207227 0.36458382
-0.05131993 -0.28486115 0.61578953 -0.06947511 0.076733135 -0.15347694 -0.048644487 -0.12466365
-0.18729089 -0.028458187 -0.13170661 -0.28471252 -0.28324658 -0.27611995 -0.28341722 -0.2830991
-0.04788381 -0.19626856 0.33962536 0.26407072 0.26949686 -0.13306578 -0.022148466 -0.0647911
-0.021623095 -0.10102217 0.7789974 -0.12552261 -0.12309056 -0.034908034 -0.19361198 0.020349048

l1.bias f4 [8]
00000000: e8fc 0f3f 4cc2 193f 9880 f43e 6988 0d3f
00000010: 7243 903e 88f5 a43e b27d 3e3f 4209 623f
0.5624528 0.600621 0.4775436 0.5528627 0.28176457 0.32218575 0.74410546 0.88295376

l2.weight f4 [8, 8]
00000000: 4193 923f b74d 73bf 621e 593f 7cf5 053b
00000010: fa1e 3b3f 01fb 9c3c f5fa e1bd cee0 1e3f
00000020: 7ac9 333d a5f0 493f 9d73 c63e 22b5 3dbf
00000030: 66d6 76bf d04b 4bbf dc94 813f a0e3 a13f
00000040: cd25 03bf f6b9 6bbd 6c3d 1d3f a485 a33f
00000050: a768 303f 962a 2cbf 8475 603f 70e9 84bf
00000060: 7656 6b3f 744f b7be c56a a03b 67dd e4bd
00000070: f487 f3be af35 b3bc 0910 3c3d 82b8 a33f
00000080: a840 573f c1b1 19bf 1070 3a3f a668 20bf
00000090: 02dd ea3e fd3a 1fbf f41f 813f 7e9b 37be
000000a0: 41c1 653f e9b7 c4be 21a9 39bf 8810 ac3f
000000b0: 26e0 45bf f84f 6d3f 3486 153d 08d8 0a3e
000000c0: dc25 593f 73a4 6a3e bfa1 42be 38b1 5f3c
000000d0: 7c53 443f 42af 3b3f b2f5 493e cca2 33bf
000000e0: a8b0 263f 848b 703f 114a a73f 632d a8be
000000f0: e1e5 ab3a e5db 1c3f 6f10 7d3f 86f0 1dbf
1.1451188 -0.9504046 0.84811985 0.002044051 0.7309414 0.019162657 -0.110341944 0.62061775
0.043893315 0.7888282 0.3876008 -0.7410451 -0.96420896 -0.79412556 1.0123553 1.2647591
-0.51229554 -0.057550393 0.6142185 1.2775159 0.68909687 -0.6725248 0.87679315 -1.038374
0.91928804 -0.35802805 0.0048955404 -0.11175042 -0.47564662 -0.021876184 0.04591373 1.2790682
0.8408303 -0.60036856 0.72827244 -0.6265968 0.4587174 -0.62199384 1.0087876 -0.1793041
0.8974801 -0.38421562 -0.72523695 1.3442545 -0.7729515 0.9270015 0.03650494 0.13558972
0.84823394 0.22914295 -0.19007014 0.013653092 0.7668989 0.733143 0.19722632 -0.70170283
0.65113306 0.93962884 1.3069478 -0.32847127 0.0013114774 0.6127303 0.988532 -0.61695135

l2.bias f4 [8]
00000000: 7af5 d93d 8053 4b3f 5b93 cd3e 1c35 c03e
00000010: 84d5 e13d 788c 853e c449 d4be 2541 4cbe
0.10642524 0.79424286 0.40151486 0.3754052 0.11027053 0.26083732 -0.4146253 -0.19946726

l3.weight f4 [9, 8]
00000000: d769 0f3f 1b01 033e cddc 7fbf a9f9 893e
00000010: 9dea 3a3f 89aa 6dbf 6199 53bf 582d b63d
00000020: 1b00 0e3f de5a 5dbf 15e3 d53e 59ab d7be
00000030: 8471 023f f521 9abf 4148 f13e 44ac aabd
00000040: 92da 37bf 2013 70bf cb59 86bf 2036 1fbf
00000050: 708b 65bf 783c cf3e cb5e 5b3f c2aa 183f
00000060: 47a3 99bf 4f63 a33f f42a 9bbf 19d5 223f
00000070: 4a32 d7bf 93b4 a4bf 5f8d e6be 57da f0bd
00000080: ea91 293f 4ba6 3cbe 5e64 a0bf 6f9a 2d3f
00000090: d37a dbbe 7602 283f 6f2e c4be 4443 a7bf
000000a0: e755 edbe e1e7 81bf 7fd8 f83e 32bc 43bf
000000b0: 676a 56bf 4de7 c83d c765 a7be 8f32 fabe
000000c0: 7aa8 33bf 5207 76bf 1c96 d43e dc0b 0abf
000000d0: 2dca 13bf 8187 313e 99da 33bf 41b5 efbe
000000e0: d8aa 05bf 4b35 48bf ce8f ec3e bce8 2cbf
000000f0: 6824 2fbf f798 273e 27a0 56bf dc49 b5be
00000100: d445 97bf 5b72 f13e 7413 e53e 27f9 afbf
00000110: ad3f 883e d623 aebf f67b 80bf b5d8 2f3f
0.56020874 0.1279339 -0.9994629 0.26948288 0.7301424 -0.9283834 -0.8265591 0.088953674
0.5546891 -0.8646678 0.41774812 -0.42122915 0.5095446 -1.2041613 0.47125438 -0.08333638
-0.71817887 -0.9377918 -1.0496153 -0.62191963 -0.8966589 0.40475821 0.8569152 0.59635556
-1.2002953 1.2764682 -1.2122483 0.6360641 -1.6812222 -1.2867607 -0.45029733 -0.11760395
0.6623827 -0.1842281 -1.253063 0.6781377 -0.42867145 0.65628755 -0.38316676 -1.3067403
-0.463546 -1.0148889 0.48602673 -0.7645904 -0.8375611 0.09809742 -0.32694837 -0.48866698
-0.7017895 -0.9610492 0.41520774 -0.53924346 -0.5773037 0.17336847 -0.7025543 -0.46817973
-0.5221381 -0.7820632 0.46203464 -0.67542624 -0.68414927 0.16366945 -0.83838123 -0.35407913
-1.1818185 0.4715756 0.44741404 -1.374791 0.2661108 -1.3604686 -1.003783 0.68690044

l3.bias f4 [9]
00000000: 6059 26bf 58d2 febe 92bc 5a3e cb06 b83e
00000010: dbc7 be3e 9ddd 1c3d 24e6 bd3d 9804 39be
00000020: 910c 63be
-0.64980125 -0.49769855 0.21360996 0.35942683 0.37261853 0.038297284 0.092724115 -0.18068159
-0.22172762
